…
12/12 - 1s - loss: 0.0172 - accuracy: 0.9894 - val_loss: 1.1170e-04 - val_accuracy: 1.0000 - 968ms/epoch - 81ms/step
Epoch 9/10
12/12 - 0s - loss: 0.0179 - accuracy: 0.9920 - val_loss: 2.6457e-04 - val_accuracy: 1.0000 - 263ms/epoch - 22ms/step
Epoch 10/10
12/12 - 0s - loss: 0.0197 - accuracy: 0.9947 - val_loss: 2.6740e-04 - val_accuracy: 1.0000 - 274ms/epoch - 23ms/step
loading prefit.checkpoint
[0.0003757127560675144, 1.0]
Model: "backbone"
_________________________________________________________________
 Layer (type)                Output Shape              Param #   
=================================================================
 feat_layers (Sequential)    (None, 505, 32)           67648     
 conv_backbone (Conv1D)      (None, 474, 32)           32800     
 gap1d (GlobalAveragePoolin  (None, 32)                0         
 g1D)                                                            
 dropout_19 (Dropout)        (None, 32)                0         
 dense_8 (Dense)             (None, 3)                 99        
 activation_8 (Activation)   (None, 3)                 0         
=================================================================
Total params: 100547 (392.76 KB)
Trainable params: 32899 (128.51 KB)
Non-trainable params: 67648 (264.25 KB)
_________________________________________________________________
None
1/1: CWRU (nio)
Slipt type: groupkfold_severity
(353, 8400, 1) (353,) (176, 8400, 1) (176,)
loading prefit.checkpoint
Epoch 1/10
10/10 - 2s - loss: 0.3729 - accuracy: 0.8328 - val_loss: 0.0013 - val_accuracy: 1.0000 - 2s/epoch - 233ms/step
…
