…
207/207 - 65s - loss: 1.4412 - accuracy: 0.3446 - val_loss: 1.7167 - val_accuracy: 0.0000e+00 - 65s/epoch - 315ms/step
Epoch 99/100
207/207 - 65s - loss: 1.4300 - accuracy: 0.3450 - val_loss: 1.8454 - val_accuracy: 0.0000e+00 - 65s/epoch - 315ms/step
Epoch 100/100
207/207 - 65s - loss: 1.4466 - accuracy: 0.3449 - val_loss: 2.0289 - val_accuracy: 0.0000e+00 - 65s/epoch - 313ms/step
loading prefit.checkpoint
[1.5040215253829956, 0.3105327785015106]
Model: "backbone"
_________________________________________________________________
 Layer (type)                Output Shape              Param #   
=================================================================
 feat_layers (Sequential)    (None, 505, 32)           67648     
 conv_backbone (Conv1D)      (None, 474, 32)           32800     
 gap1d (GlobalAveragePoolin  (None, 32)                0         
 g1D)                                                            
 dropout_46 (Dropout)        (None, 32)                0         
 dense_62 (Dense)            (None, 5)                 165       
 activation_62 (Activation)  (None, 5)                 0         
=================================================================
Total params: 100613 (393.02 KB)
Trainable params: 32965 (128.77 KB)
Non-trainable params: 67648 (264.25 KB)
_________________________________________________________________
None
1/10: CWRU (balanced)
Slipt type: groupkfold_severity
(1371, 8400, 1) (1371,) (674, 8400, 1) (674,)
loading prefit.checkpoint
Epoch 1/100
39/39 - 3s - loss: 63.9808 - accuracy: 0.3009 - val_loss: 1.3796 - val_accuracy: 0.3478 - 3s/epoch - 73ms/step
…
