…
1881/1881 - 13s - loss: 1.1488 - accuracy: 0.3873 - val_loss: 1.1474 - val_accuracy: 0.3888 - 13s/epoch - 7ms/step
Epoch 432/1000
1881/1881 - 13s - loss: 1.1489 - accuracy: 0.3874 - val_loss: 1.1474 - val_accuracy: 0.3888 - 13s/epoch - 7ms/step
loading prefit.checkpoint
(Xtr, ytr) [1.236794114112854, 0.3887568414211273]
(Xva, yva) [1.146024227142334, 0.38906988501548767]
(X, y_cat) [1.2186436653137207, 0.38881945610046387]
Model: "backbone"
_________________________________________________________________
 Layer (type)                Output Shape              Param #   
=================================================================
 feat_layers (Sequential)    (None, 505, 32)           67648     
 conv_backbone (Conv1D)      (None, 474, 32)           32800     
 gap1d (GlobalAveragePoolin  (None, 32)                0         
 g1D)                                                            
 dropout_2 (Dropout)         (None, 32)                0         
 dense_30 (Dense)            (None, 5)                 165       
 activation_30 (Activation)  (None, 5)                 0         
=================================================================
Total params: 100613 (393.02 KB)
Trainable params: 32965 (128.77 KB)
Non-trainable params: 67648 (264.25 KB)
_________________________________________________________________
None
1/10: CWRU (balanced)
Slipt type: groupkfold_severity
(1623, 8400, 1) (1623,) (755, 8400, 1) (755,)
loading prefit.checkpoint
Epoch 1/1000
41/41 - 3s - loss: 1.3613 - accuracy: 0.3159 - val_loss: 1.3106 - val_accuracy: 0.3231 - 3s/epoch - 79ms/step
…
