…
30/30 - 9s - loss: 0.0165 - accuracy: 0.9927 - val_loss: 11.6859 - val_accuracy: 0.3458 - 9s/epoch - 303ms/step
Epoch 9/10
30/30 - 9s - loss: 0.0111 - accuracy: 0.9958 - val_loss: 9.0023 - val_accuracy: 0.3458 - 9s/epoch - 306ms/step
Epoch 10/10
30/30 - 9s - loss: 0.0112 - accuracy: 0.9958 - val_loss: 8.8981 - val_accuracy: 0.3458 - 9s/epoch - 304ms/step
loading prefit.checkpoint
[0.21742667257785797, 0.9343954920768738]
Model: "backbone"
_________________________________________________________________
 Layer (type)                Output Shape              Param #   
=================================================================
 feat_layers (Sequential)    (None, 505, 32)           67648     
 conv_backbone (Conv1D)      (None, 474, 32)           32800     
 gap1d (GlobalAveragePoolin  (None, 32)                0         
 g1D)                                                            
 dropout_19 (Dropout)        (None, 32)                0         
 dense_8 (Dense)             (None, 3)                 99        
 activation_8 (Activation)   (None, 3)                 0         
=================================================================
Total params: 100547 (392.76 KB)
Trainable params: 32899 (128.51 KB)
Non-trainable params: 67648 (264.25 KB)
_________________________________________________________________
None
1/1: Mafaulda (reduced)
Slipt type: groupkfold_acquisition
(1160, 8400, 1) (1160,) (580, 8400, 1) (580,)
loading prefit.checkpoint
Epoch 1/10
33/33 - 2s - loss: 1.0810 - accuracy: 0.6159 - val_loss: 1.3841 - val_accuracy: 0.0000e+00 - 2s/epoch - 73ms/step
…
