…
 [ 0  0  0  0  0  0  0  0  0  0  0  0  0  0 10  0  0]
 [ 0  0  0  0  0  0  0  0  0  0  0  0  0  0  0 10  0]
 [ 0  0  0  0  0  0  0  0  0  0  0  0  0  0  0  0 10]]
Model: "model_2"
__________________________________________________________________________________________________
 Layer (type)                Output Shape                 Param #   Connected to                  
==================================================================================================
 input_3 (InputLayer)        [(None, 64000, 18)]          0         []                            
 batch_normalization_2 (Bat  (None, 64000, 18)            72        ['input_3[0][0]']             
 chNormalization)                                                                                 
 tf.__operators__.getitem_6  (None, 64000, 6)             0         ['batch_normalization_2[0][0]'
  (SlicingOpLambda)                                                 ]                             
 tf.__operators__.getitem_7  (None, 64000, 3)             0         ['batch_normalization_2[0][0]'
  (SlicingOpLambda)                                                 ]                             
 tf.__operators__.getitem_8  (None, 64000, 9)             0         ['batch_normalization_2[0][0]'
  (SlicingOpLambda)                                                 ]                             
 conv1d_6 (Conv1D)           (None, 7097, 16)             12304     ['tf.__operators__.getitem_6[0
                                                                    ][0]']                        
 conv1d_7 (Conv1D)           (None, 7097, 16)             6160      ['tf.__operators__.getitem_7[0
                                                                    ][0]']                        
 conv1d_8 (Conv1D)           (None, 7097, 16)             18448     ['tf.__operators__.getitem_8[0
                                                                    ][0]']                        
 layer_normalization_6 (Lay  (None, 7097, 16)             32        ['conv1d_6[0][0]']            
 erNormalization)                                                                                 
 layer_normalization_7 (Lay  (None, 7097, 16)             32        ['conv1d_7[0][0]']            
 erNormalization)                                                                                 
 layer_normalization_8 (Lay  (None, 7097, 16)             32        ['conv1d_8[0][0]']            
 erNormalization)                                                                                 
 global_average_pooling1d_6  (None, 16)                   0         ['layer_normalization_6[0][0]'
  (GlobalAveragePooling1D)                                          ]                             
 global_average_pooling1d_7  (None, 16)                   0         ['layer_normalization_7[0][0]'
  (GlobalAveragePooling1D)                                          ]                             
 global_average_pooling1d_8  (None, 16)                   0         ['layer_normalization_8[0][0]'
  (GlobalAveragePooling1D)                                          ]                             
 dense_8 (Dense)             (None, 8)                    136       ['global_average_pooling1d_6[0
                                                                    ][0]']                        
 dense_9 (Dense)             (None, 4)                    68        ['global_average_pooling1d_7[0
                                                                    ][0]']                        
 dense_10 (Dense)            (None, 4)                    68        ['global_average_pooling1d_8[0
                                                                    ][0]']                        
 concatenate_2 (Concatenate  (None, 16)                   0         ['dense_8[0][0]',             
 )                                                                   'dense_9[0][0]',             
                                                                     'dense_10[0][0]']            
 dropout_2 (Dropout)         (None, 16)                   0         ['concatenate_2[0][0]']       
 dense_11 (Dense)            (None, 17)                   289       ['dropout_2[0][0]']           
 activation_2 (Activation)   (None, 17)                   0         ['dense_11[0][0]']            
==================================================================================================
Total params: 37641 (147.04 KB)
Trainable params: 37605 (146.89 KB)
Non-trainable params: 36 (144.00 Byte)
__________________________________________________________________________________________________
None
mean accuracy: 0.9588235294117647
2/5: 
fold 1/3 accuracy: 0.9411764705882353
…
