  -------
|  Kfold  |
  -------
PHM (18ch_tr)
1/5: 
Model: "model"
__________________________________________________________________________________________________
 Layer (type)                Output Shape                 Param #   Connected to                  
==================================================================================================
 input_1 (InputLayer)        [(None, 64000, 18)]          0         []                            
 batch_normalization (Batch  (None, 64000, 18)            72        ['input_1[0][0]']             
 Normalization)                                                                                   
 tf.__operators__.getitem (  (None, 64000, 6)             0         ['batch_normalization[0][0]'] 
 SlicingOpLambda)                                                                                 
 tf.__operators__.getitem_2  (None, 64000, 3)             0         ['batch_normalization[0][0]'] 
  (SlicingOpLambda)                                                                               
 tf.__operators__.getitem_4  (None, 64000, 9)             0         ['batch_normalization[0][0]'] 
  (SlicingOpLambda)                                                                               
 conv1d (Conv1D)             (None, 7097, 16)             12304     ['tf.__operators__.getitem[0][
                                                                    0]']                          
 conv1d_2 (Conv1D)           (None, 7097, 16)             6160      ['tf.__operators__.getitem_2[0
                                                                    ][0]']                        
 conv1d_4 (Conv1D)           (None, 7097, 16)             18448     ['tf.__operators__.getitem_4[0
                                                                    ][0]']                        
 layer_normalization (Layer  (None, 7097, 16)             32        ['conv1d[0][0]']              
 Normalization)                                                                                   
 layer_normalization_2 (Lay  (None, 7097, 16)             32        ['conv1d_2[0][0]']            
 erNormalization)                                                                                 
 layer_normalization_4 (Lay  (None, 7097, 16)             32        ['conv1d_4[0][0]']            
 erNormalization)                                                                                 
 tf.__operators__.getitem_1  (None, 7097, 6)              0         ['layer_normalization[0][0]'] 
  (SlicingOpLambda)                                                                               
 tf.__operators__.getitem_3  (None, 7097, 3)              0         ['layer_normalization_2[0][0]'
  (SlicingOpLambda)                                                 ]                             
 tf.__operators__.getitem_5  (None, 7097, 7)              0         ['layer_normalization_4[0][0]'
  (SlicingOpLambda)                                                 ]                             
 conv1d_1 (Conv1D)           (None, 775, 32)              24608     ['tf.__operators__.getitem_1[0
                                                                    ][0]']                        
 conv1d_3 (Conv1D)           (None, 775, 32)              12320     ['tf.__operators__.getitem_3[0
                                                                    ][0]']                        
 conv1d_5 (Conv1D)           (None, 775, 32)              28704     ['tf.__operators__.getitem_5[0
                                                                    ][0]']                        
 layer_normalization_1 (Lay  (None, 775, 32)              64        ['conv1d_1[0][0]']            
 erNormalization)                                                                                 
 layer_normalization_3 (Lay  (None, 775, 32)              64        ['conv1d_3[0][0]']            
 erNormalization)                                                                                 
 layer_normalization_5 (Lay  (None, 775, 32)              64        ['conv1d_5[0][0]']            
 erNormalization)                                                                                 
 global_average_pooling1d (  (None, 32)                   0         ['layer_normalization_1[0][0]'
 GlobalAveragePooling1D)                                            ]                             
 global_average_pooling1d_1  (None, 32)                   0         ['layer_normalization_3[0][0]'
  (GlobalAveragePooling1D)                                          ]                             
 global_average_pooling1d_2  (None, 32)                   0         ['layer_normalization_5[0][0]'
  (GlobalAveragePooling1D)                                          ]                             
 dense (Dense)               (None, 8)                    264       ['global_average_pooling1d[0][
                                                                    0]']                          
 dense_1 (Dense)             (None, 4)                    132       ['global_average_pooling1d_1[0
                                                                    ][0]']                        
 dense_2 (Dense)             (None, 4)                    132       ['global_average_pooling1d_2[0
                                                                    ][0]']                        
 concatenate (Concatenate)   (None, 16)                   0         ['dense[0][0]',               
                                                                     'dense_1[0][0]',             
                                                                     'dense_2[0][0]']             
 dropout (Dropout)           (None, 16)                   0         ['concatenate[0][0]']         
 dense_3 (Dense)             (None, 17)                   289       ['dropout[0][0]']             
 activation (Activation)     (None, 17)                   0         ['dense_3[0][0]']             
==================================================================================================
Total params: 103721 (405.16 KB)
Trainable params: 103685 (405.02 KB)
Non-trainable params: 36 (144.00 Byte)
__________________________________________________________________________________________________
None
fold 1/3 accuracy: 0.8117647058823529
 [0, 1, 2, 3, 4, 5, 6, 7, 8, 9, 10, 11, 12, 13, 14, 15, 16]
…
