…
  loading acquisitions 100.00 %  (652 examples) | labels: {'O', 'I', 'N'}
Paderborn (all)
  loading acquisitions 100.00 %  (67382 examples) | labels: {'O', 'I', 'N'}
Ottawa (all)
  loading acquisitions 100.00 %  (8568 examples) | labels: {'O', 'I', 'N'}
UORED_VAFCLS (all)
  loading acquisitions 100.00 %  (15000 examples) | labels: {'C', 'I', 'N', 'B', 'O'}
pretraining estimator...
Model: "backbone"
_________________________________________________________________
 Layer (type)                Output Shape              Param #   
=================================================================
 feat_layers (Sequential)    (None, 128)               328928    
|¯¯¯¯¯¯¯¯¯¯¯¯¯¯¯¯¯¯¯¯¯¯¯¯¯¯¯¯¯¯¯¯¯¯¯¯¯¯¯¯¯¯¯¯¯¯¯¯¯¯¯¯¯¯¯¯¯¯¯¯¯¯¯|
| conv_kernel32_1 (Conv1D)   (None, 8369, 32)          1056     |
|                                                               |
| maxpool_1 (MaxPooling1D)   (None, 4184, 32)          0        |
|                                                               |
| conv_kernel32_2 (Conv1D)   (None, 4153, 64)          65600    |
|                                                               |
| maxpool_2 (MaxPooling1D)   (None, 2076, 64)          0        |
|                                                               |
| conv_kernel32_3 (Conv1D)   (None, 2045, 128)         262272   |
|                                                               |
| maxpool_3 (MaxPooling1D)   (None, 1022, 128)         0        |
|                                                               |
| flat (GlobalMaxPooling1D)  (None, 128)               0        |
¯¯¯¯¯¯¯¯¯¯¯¯¯¯¯¯¯¯¯¯¯¯¯¯¯¯¯¯¯¯¯¯¯¯¯¯¯¯¯¯¯¯¯¯¯¯¯¯¯¯¯¯¯¯¯¯¯¯¯¯¯¯¯¯¯
 dropout_1 (Dropout)         (None, 128)               0         
 dense_30 (Dense)            (None, 5)                 645       
 activation_30 (Activation)  (None, 5)                 0         
=================================================================
Total params: 329573 (1.26 MB)
Trainable params: 645 (2.52 KB)
Non-trainable params: 328928 (1.25 MB)
_________________________________________________________________
None
0.5471833807650026
[[    0     0     0     0  3113]
 [    0   669     0     0  1831]
 [    0     0 18641  2105 13736]
 [    0     0     3 15626  7760]
 [    0     8 12166  3352 18323]]
…
