…
 [ 0  0  0  0  0  0  0  0  0  0  0  0  0  0 10  0  0]
 [ 0  0  0  0  0  0  0  0  0  0  0  0  0  0  0 10  0]
 [ 0  0  0  0  0  0  0  0  0  0  0  0  0  0  0  0 10]]
Model: "model_2"
__________________________________________________________________________________________________
 Layer (type)                Output Shape                 Param #   Connected to                  
==================================================================================================
 input_3 (InputLayer)        [(None, 64000, 18)]          0         []                            
 batch_normalization_2 (Bat  (None, 64000, 18)            72        ['input_3[0][0]']             
 chNormalization)                                                                                 
 tf.__operators__.getitem_1  (None, 64000, 6)             0         ['batch_normalization_2[0][0]'
 2 (SlicingOpLambda)                                                ]                             
 tf.__operators__.getitem_1  (None, 64000, 3)             0         ['batch_normalization_2[0][0]'
 4 (SlicingOpLambda)                                                ]                             
 tf.__operators__.getitem_1  (None, 64000, 9)             0         ['batch_normalization_2[0][0]'
 6 (SlicingOpLambda)                                                ]                             
 conv1d_12 (Conv1D)          (None, 7097, 16)             12304     ['tf.__operators__.getitem_12[
                                                                    0][0]']                       
 conv1d_14 (Conv1D)          (None, 7097, 16)             6160      ['tf.__operators__.getitem_14[
                                                                    0][0]']                       
 conv1d_16 (Conv1D)          (None, 7097, 16)             18448     ['tf.__operators__.getitem_16[
                                                                    0][0]']                       
 layer_normalization_12 (La  (None, 7097, 16)             32        ['conv1d_12[0][0]']           
 yerNormalization)                                                                                
 layer_normalization_14 (La  (None, 7097, 16)             32        ['conv1d_14[0][0]']           
 yerNormalization)                                                                                
 layer_normalization_16 (La  (None, 7097, 16)             32        ['conv1d_16[0][0]']           
 yerNormalization)                                                                                
 tf.__operators__.getitem_1  (None, 7097, 6)              0         ['layer_normalization_12[0][0]
 3 (SlicingOpLambda)                                                ']                            
 tf.__operators__.getitem_1  (None, 7097, 3)              0         ['layer_normalization_14[0][0]
 5 (SlicingOpLambda)                                                ']                            
 tf.__operators__.getitem_1  (None, 7097, 7)              0         ['layer_normalization_16[0][0]
 7 (SlicingOpLambda)                                                ']                            
 conv1d_13 (Conv1D)          (None, 775, 32)              24608     ['tf.__operators__.getitem_13[
                                                                    0][0]']                       
 conv1d_15 (Conv1D)          (None, 775, 32)              12320     ['tf.__operators__.getitem_15[
                                                                    0][0]']                       
 conv1d_17 (Conv1D)          (None, 775, 32)              28704     ['tf.__operators__.getitem_17[
                                                                    0][0]']                       
 layer_normalization_13 (La  (None, 775, 32)              64        ['conv1d_13[0][0]']           
 yerNormalization)                                                                                
 layer_normalization_15 (La  (None, 775, 32)              64        ['conv1d_15[0][0]']           
 yerNormalization)                                                                                
 layer_normalization_17 (La  (None, 775, 32)              64        ['conv1d_17[0][0]']           
 yerNormalization)                                                                                
 global_average_pooling1d_6  (None, 32)                   0         ['layer_normalization_13[0][0]
  (GlobalAveragePooling1D)                                          ']                            
 global_average_pooling1d_7  (None, 32)                   0         ['layer_normalization_15[0][0]
  (GlobalAveragePooling1D)                                          ']                            
 global_average_pooling1d_8  (None, 32)                   0         ['layer_normalization_17[0][0]
  (GlobalAveragePooling1D)                                          ']                            
 dense_8 (Dense)             (None, 8)                    264       ['global_average_pooling1d_6[0
                                                                    ][0]']                        
 dense_9 (Dense)             (None, 4)                    132       ['global_average_pooling1d_7[0
                                                                    ][0]']                        
 dense_10 (Dense)            (None, 4)                    132       ['global_average_pooling1d_8[0
                                                                    ][0]']                        
 concatenate_2 (Concatenate  (None, 16)                   0         ['dense_8[0][0]',             
 )                                                                   'dense_9[0][0]',             
                                                                     'dense_10[0][0]']            
 dropout_2 (Dropout)         (None, 16)                   0         ['concatenate_2[0][0]']       
 dense_11 (Dense)            (None, 17)                   289       ['dropout_2[0][0]']           
 activation_2 (Activation)   (None, 17)                   0         ['dense_11[0][0]']            
==================================================================================================
Total params: 103721 (405.16 KB)
Trainable params: 103685 (405.02 KB)
Non-trainable params: 36 (144.00 Byte)
__________________________________________________________________________________________________
None
mean accuracy: 0.9392156862745097
2/5: 
fold 1/3 accuracy: 0.9058823529411765
…
