…
2116/2116 - 653s - loss: 0.0128 - accuracy: 0.9973 - val_loss: 2305892024320.0000 - val_accuracy: 0.1932 - 653s/epoch - 309ms/step
Epoch 100/1000
2116/2116 - 656s - loss: 0.0069 - accuracy: 0.9980 - val_loss: 1798639321088.0000 - val_accuracy: 0.1939 - 656s/epoch - 310ms/step
Epoch 101/1000
2116/2116 - 656s - loss: 0.0075 - accuracy: 0.9975 - val_loss: 1861032738816.0000 - val_accuracy: 0.1959 - 656s/epoch - 310ms/step
loading prefit.checkpoint
[19842338816.0, 0.9150155782699585]
Model: "backbone"
_________________________________________________________________
 Layer (type)                Output Shape              Param #   
=================================================================
 feat_layers (Sequential)    (None, 505, 32)           67648     
 conv_backbone (Conv1D)      (None, 474, 32)           32800     
 gap1d (GlobalAveragePoolin  (None, 32)                0         
 g1D)                                                            
 dropout_46 (Dropout)        (None, 32)                0         
 dense_62 (Dense)            (None, 5)                 165       
 activation_62 (Activation)  (None, 5)                 0         
=================================================================
Total params: 100613 (393.02 KB)
Trainable params: 32965 (128.77 KB)
Non-trainable params: 67648 (264.25 KB)
_________________________________________________________________
None
1/10: CWRU (balanced)
Slipt type: groupkfold_severity
(1623, 8400, 1) (1623,) (755, 8400, 1) (755,)
loading prefit.checkpoint
Epoch 1/1000
46/46 - 3s - loss: 5.3815 - accuracy: 0.5753 - val_loss: 2.1748 - val_accuracy: 0.5092 - 3s/epoch - 67ms/step
…
