…
14/14 - 1s - loss: 0.3610 - accuracy: 0.7884 - val_loss: 0.3204 - val_accuracy: 0.9907 - 653ms/epoch - 47ms/step
Epoch 10/10
14/14 - 1s - loss: 0.3250 - accuracy: 0.9047 - val_loss: 0.2813 - val_accuracy: 0.9907 - 647ms/epoch - 46ms/step
loading prefit.checkpoint
(Xtr, ytr) [0.28126251697540283, 0.9930232763290405]
(Xva, yva) [0.2813135087490082, 0.9907407164573669]
(X, y_cat) [0.2812727093696594, 0.9925650358200073]
Model: "backbone"
_________________________________________________________________
 Layer (type)                Output Shape              Param #   
=================================================================
 feat_layers (Sequential)    (None, 505, 32)           67648     
 conv_backbone (Conv1D)      (None, 474, 32)           32800     
 gap1d (GlobalAveragePoolin  (None, 32)                0         
 g1D)                                                            
 dropout_2 (Dropout)         (None, 32)                0         
 dense_3 (Dense)             (None, 3)                 99        
 activation_3 (Activation)   (None, 3)                 0         
=================================================================
Total params: 100547 (392.76 KB)
Trainable params: 32899 (128.51 KB)
Non-trainable params: 67648 (264.25 KB)
_________________________________________________________________
None
1/1: CWRU (nio)
Slipt type: groupkfold_severity
(353, 8400, 1) (353,) (176, 8400, 1) (176,)
loading prefit.checkpoint
Epoch 1/10
9/9 - 2s - loss: 1.7532 - accuracy: 0.3546 - val_loss: 0.6738 - val_accuracy: 0.4930 - 2s/epoch - 176ms/step
…
