…
30/30 - 9s - loss: 0.0119 - accuracy: 0.9937 - val_loss: 12.3007 - val_accuracy: 0.3458 - 9s/epoch - 305ms/step
Epoch 9/10
30/30 - 9s - loss: 0.0176 - accuracy: 0.9937 - val_loss: 10.8447 - val_accuracy: 0.3458 - 9s/epoch - 306ms/step
Epoch 10/10
30/30 - 9s - loss: 0.0212 - accuracy: 0.9917 - val_loss: 9.4056 - val_accuracy: 0.3458 - 9s/epoch - 306ms/step
loading prefit.checkpoint
[0.32648539543151855, 0.9343954920768738]
Model: "backbone"
_________________________________________________________________
 Layer (type)                Output Shape              Param #   
=================================================================
 feat_layers (Sequential)    (None, 505, 32)           67648     
 conv_backbone (Conv1D)      (None, 474, 32)           32800     
 gap1d (GlobalAveragePoolin  (None, 32)                0         
 g1D)                                                            
 dropout_19 (Dropout)        (None, 32)                0         
 dense_8 (Dense)             (None, 3)                 99        
 activation_8 (Activation)   (None, 3)                 0         
=================================================================
Total params: 100547 (392.76 KB)
Trainable params: 32899 (128.51 KB)
Non-trainable params: 67648 (264.25 KB)
_________________________________________________________________
None
1/1: Mafaulda (dbg)
Slipt type: groupkfold_acquisition
(290, 8400, 1) (290,) (174, 8400, 1) (174,)
loading prefit.checkpoint
Epoch 1/10
9/9 - 1s - loss: 1.2098 - accuracy: 0.4406 - val_loss: 1.4514 - val_accuracy: 0.0000e+00 - 1s/epoch - 156ms/step
…
