…
  loading acquisitions 100.00 %  (652 examples) | labels: {'O', 'I', 'N'}
Ottawa (all)
  loading acquisitions 100.00 %  (8568 examples) | labels: {'O', 'I', 'N'}
Paderborn (all)
  loading acquisitions 100.00 %  (67382 examples) | labels: {'O', 'I', 'N'}
UORED_VAFCLS (all)
  loading acquisitions 100.00 %  (15000 examples) | labels: {'B', 'I', 'O', 'C', 'N'}
pretraining estimator...
Model: "backbone"
_________________________________________________________________
 Layer (type)                Output Shape              Param #   
=================================================================
 feat_layers (Sequential)    (None, 32)                790752    
|¯¯¯¯¯¯¯¯¯¯¯¯¯¯¯¯¯¯¯¯¯¯¯¯¯¯¯¯¯¯¯¯¯¯¯¯¯¯¯¯¯¯¯¯¯¯¯¯¯¯¯¯¯¯¯¯¯¯¯¯¯¯¯|
| conv_kernel32_1 (Conv1D)   (None, 8369, 128)         4224     |
|                                                               |
| dropout (Dropout)          (None, 8369, 128)         0        |
|                                                               |
| maxpool_1 (MaxPooling1D)   (None, 2092, 128)         0        |
|                                                               |
| conv_kernel64_2 (Conv1D)   (None, 2029, 64)          524352   |
|                                                               |
| dropout_1 (Dropout)        (None, 2029, 64)          0        |
|                                                               |
| maxpool_2 (MaxPooling1D)   (None, 507, 64)           0        |
|                                                               |
| conv_kernel128_3 (Conv1D)  (None, 380, 32)           262176   |
|                                                               |
| dropout_2 (Dropout)        (None, 380, 32)           0        |
|                                                               |
| maxpool_3 (MaxPooling1D)   (None, 95, 32)            0        |
|                                                               |
| flat (GlobalMaxPooling1D)  (None, 32)                0        |
¯¯¯¯¯¯¯¯¯¯¯¯¯¯¯¯¯¯¯¯¯¯¯¯¯¯¯¯¯¯¯¯¯¯¯¯¯¯¯¯¯¯¯¯¯¯¯¯¯¯¯¯¯¯¯¯¯¯¯¯¯¯¯¯¯
 dropout_3 (Dropout)         (None, 32)                0         
 dense_30 (Dense)            (None, 5)                 165       
 activation_30 (Activation)  (None, 5)                 0         
=================================================================
Total params: 790917 (3.02 MB)
Trainable params: 165 (660.00 Byte)
Non-trainable params: 790752 (3.02 MB)
_________________________________________________________________
None
0.0759660135822383
[[   39   617  2260   197     0]
 [   86   468  1308   638     0]
 [ 2939 20552  2341  8650     0]
 [ 3019 12675  3149  4546     0]
…
