…
loading target acquisitions...
CWRU (reduced)
inferencing predictions...
25/25 [==============================] - 0s 13ms/step
Accuracy 0.31949685534591193
 ['B', 'I', 'O', 'N']
[[ 56   0   0 168]
 [ 75   0 107  42]
 [ 93   0  19  56]
 [  0   0   0 179]]
Transfer learning
loading sources acquisitions...
UORED_VAFCLS (mert)
HUST (niob)
pretraining estimator...
Model: "backbone"
_________________________________________________________________
 Layer (type)                Output Shape              Param #   
=================================================================
 feat_layers (Sequential)    (None, 979, 32)           67648     
                                                                 
 max_pooling1d_3 (MaxPoolin  (None, 122, 32)           0         
 g1D)                                                            
                                                                 
 conv3 (Conv1D)              (None, 59, 32)            65568     
                                                                 
 G_A_P_1D (GlobalAveragePoo  (None, 32)                0         
 ling1D)                                                         
                                                                 
 dropout (Dropout)           (None, 32)                0         
                                                                 
 dense_5 (Dense)             (None, 4)                 132       
                                                                 
 activation_5 (Activation)   (None, 4)                 0         
                                                                 
=================================================================
Total params: 133348 (520.89 KB)
Trainable params: 65700 (256.64 KB)
Non-trainable params: 67648 (264.25 KB)
_________________________________________________________________
None
1/1: CWRU (reduced)
Slipt type: groupkfold_severity
(633, 8400, 1) (633,) (162, 8400, 1) (162,)
…
