…
loading target acquisitions...
CWRU (reduced)
inferencing predictions...
36/36 [==============================] - 0s 10ms/step
Accuracy 0.21485411140583555
 ['I', 'N', 'B', 'O']
[[  0 224   0 112]
 [  0 179   0   0]
 [ 15 261   1  59]
 [ 43 171   3  63]]
Transfer learning
loading sources acquisitions...
UORED_VAFCLS (mert)
HUST (niob)
pretraining estimator...
Model: "backbone"
_________________________________________________________________
 Layer (type)                Output Shape              Param #   
=================================================================
 feat_layers (Sequential)    (None, 979, 32)           67648     
                                                                 
 max_pooling1d_3 (MaxPoolin  (None, 122, 32)           0         
 g1D)                                                            
                                                                 
 conv3 (Conv1D)              (None, 59, 32)            65568     
                                                                 
 G_A_P_1D (GlobalAveragePoo  (None, 32)                0         
 ling1D)                                                         
                                                                 
 dropout (Dropout)           (None, 32)                0         
                                                                 
 dense_5 (Dense)             (None, 4)                 132       
                                                                 
 activation_5 (Activation)   (None, 4)                 0         
                                                                 
=================================================================
Total params: 133348 (520.89 KB)
Trainable params: 65700 (256.64 KB)
Non-trainable params: 67648 (264.25 KB)
_________________________________________________________________
None
1/1: CWRU (reduced)
Slipt type: groupkfold_severity
(766, 8400, 1) (766,) (365, 8400, 1) (365,)
…
