…
loading target acquisitions...
HUST (niob)
inferencing predictions...
88/88 [==============================] - 1s 6ms/step
Accuracy 0.26852846401718583
 ['I', 'B', 'O', 'N']
[[  0   0   0 750]
 [  0   0   0 543]
 [  0   0   0 750]
 [  0   0   0 750]]
Transfer learning
loading sources acquisitions...
CWRU (mert)
UORED_VAFCLS (mert)
pretraining estimator...
Model: "backbone"
_________________________________________________________________
 Layer (type)                Output Shape              Param #   
=================================================================
 feat_layers (Sequential)    (None, 979, 32)           67648     
                                                                 
 max_pooling1d_3 (MaxPoolin  (None, 122, 32)           0         
 g1D)                                                            
                                                                 
 conv3 (Conv1D)              (None, 59, 32)            65568     
                                                                 
 G_A_P_1D (GlobalAveragePoo  (None, 32)                0         
 ling1D)                                                         
                                                                 
 dropout (Dropout)           (None, 32)                0         
                                                                 
 dense_13 (Dense)            (None, 4)                 132       
                                                                 
 activation_13 (Activation)  (None, 4)                 0         
                                                                 
=================================================================
Total params: 133348 (520.89 KB)
Trainable params: 65700 (256.64 KB)
Non-trainable params: 67648 (264.25 KB)
_________________________________________________________________
None
1/3: HUST (niob)
Slipt type: groupkfold_acquisition
(2103, 8400, 1) (2103,) (690, 8400, 1) (690,)
…
