…
%  loading acquisitions 92.66 %  loading acquisitions 93.58 %  loading acquisitions 94.50 %  loading acquisitions 95.41 %  loading acquisitions 96.33 %  loading acquisitions 97.25 %  loading acquisitions 98.17 %  loading acquisitions 99.08 %  loading acquisitions 100.00 %  (3163 examples) | labels: {'B', 'I', 'N', 'O'}
pretraining estimator...
Model: "backbone"
_________________________________________________________________
 Layer (type)                Output Shape              Param #   
=================================================================
 feat_layers (Sequential)    (None, 484, 32)           66656     
                                                                 
 max_pooling1d_7 (MaxPoolin  (None, 121, 32)           0         
 g1D)                                                            
                                                                 
 conv_backbone (Conv1D)      (None, 90, 32)            32800     
                                                                 
 gap1d (GlobalAveragePoolin  (None, 32)                0         
 g1D)                                                            
                                                                 
 dropout_1 (Dropout)         (None, 32)                0         
                                                                 
 dense_40 (Dense)            (None, 5)                 165       
                                                                 
 activation_40 (Activation)  (None, 5)                 0         
                                                                 
=================================================================
Total params: 99621 (389.14 KB)
Trainable params: 32965 (128.77 KB)
Non-trainable params: 66656 (260.38 KB)
_________________________________________________________________
None
   1/2299 [..............................] - ETA: 3:57 - loss: 0.0091 - accura
…
