…
%  loading acquisitions 92.66 %  loading acquisitions 93.58 %  loading acquisitions 94.50 %  loading acquisitions 95.41 %  loading acquisitions 96.33 %  loading acquisitions 97.25 %  loading acquisitions 98.17 %  loading acquisitions 99.08 %  loading acquisitions 100.00 %  (3163 examples) | labels: {'I', 'O', 'N', 'B'}
pretraining estimator...
Model: "backbone"
_________________________________________________________________
 Layer (type)                Output Shape              Param #   
=================================================================
 feat_layers (Sequential)    (None, 979, 32)           67648     
                                                                 
 max_pooling1d_4 (MaxPoolin  (None, 122, 32)           0         
 g1D)                                                            
                                                                 
 conv3 (Conv1D)              (None, 59, 32)            65568     
                                                                 
 gap1d (GlobalAveragePoolin  (None, 32)                0         
 g1D)                                                            
                                                                 
 dropout_1 (Dropout)         (None, 32)                0         
                                                                 
 dense_40 (Dense)            (None, 5)                 165       
                                                                 
 activation_40 (Activation)  (None, 5)                 0         
                                                                 
=================================================================
Total params: 133381 (521.02 KB)
Trainable params: 65733 (256.77 KB)
Non-trainable params: 67648 (264.25 KB)
_________________________________________________________________
None
   1/2299 [..............................] - ETA: 3:33 - loss: 0.0015 - accur
…
