…
 [  0   0   0 250]
 [  0   0   0 250]]
Transfer learning
loading sources acquisitions...
CWRU (all)
  loading acquisitions 100.00 %  (3163 examples)
MFPT (all)
  loading acquisitions 100.00 %  (538 examples)
Paderborn (reduced)
  loading acquisitions 100.00 %  (7239 examples)
HUST (niob)
  loading acquisitions 100.00 %  (2793 examples)
pretraining estimator...
Model: "sequential_5"
_________________________________________________________________
 Layer (type)                Output Shape              Param #   
=================================================================
 sequential_2 (Sequential)   (None, 979, 32)           67648     
                                                                 
 max_pooling1d_5 (MaxPoolin  (None, 122, 32)           0         
 g1D)                                                            
                                                                 
 conv3 (Conv1D)              (None, 59, 32)            65568     
                                                                 
 G_A_P_1D (GlobalAveragePoo  (None, 32)                0         
 ling1D)                                                         
                                                                 
 dropout_2 (Dropout)         (None, 32)                0         
                                                                 
 dense_2 (Dense)             (None, 4)                 132       
                                                                 
 activation_2 (Activation)   (None, 4)                 0         
                                                                 
=================================================================
Total params: 133348 (520.89 KB)
Trainable params: 65700 (256.64 KB)
Non-trainable params: 67648 (264.25 KB)
_________________________________________________________________
None
UORED_VAFCLS (mert)
Slipt type: groupkfold_acquisition
  loading acquisitions 100.00 %
…
